CNN_15_epochs.pth (torch, 634572 bytes, 10 tensors)

conv1.weight f4 [256, 1, 3]
0	0xbf0a79fb	-0.5409238
1	0x3de7627a	0.1129808
2	0xbdffcdc3	-0.12490418
3	0x3e831e83	0.25609216
4	0x3e162e25	0.1466604
5	0xbf4a041c	-0.7891252
6	0x3dcba20e	0.09943019
7	0x3d2b57d7	0.041831817
8	0xb9ced9bf	-0.00039453615
9	0x3eb8cbf1	0.36093095
10	0x3e5cfddf	0.21581219
11	0xbebda4be	-0.3703975
12	0x3dfd36d3	0.123639725
13	0x3d7c4c11	0.06159598
14	0x3c1f0dcb	0.009707878
15	0xbe7096b3	-0.23494987
16	0x3d8a2b6b	0.067465626
17	0xbdc68979	-0.096941896
18	0xbcbae30a	-0.022813339
19	0xbc8266ec	-0.015918218
20	0xbd986fb5	-0.074431814
21	0xbf0fcdc6	-0.5617336
22	0x3e420d98	0.18950498
23	0xbe43461f	-0.19069718
24	0xbe030890	-0.12796235
25	0xbc6e9302	-0.014561417
26	0xbc2c37b6	-0.010511329
27	0xbed08689	-0.40727642
28	0x3e8b36b5	0.27190176
29	0xbe7e961c	-0.2486195
30	0x3e199095	0.1499656
31	0x3d6ac213	0.05731399
32	0xbe9eb97d	-0.3100089
33	0xbe35c634	-0.1775139
34	0x3cfeb4de	0.031092104
35	0xbde04d6f	-0.10952269
36	0xbdae1f0e	-0.08502017
37	0xbdbdebe6	-0.0927351
38	0xbe23e4c1	-0.16005231
39	0xbafe933f	-0.0019422545
40	0x3dacdf67	0.08441048
41	0xbcd87724	-0.026423998
42	0xbd2d57e0	-0.042320132
43	0xbd70f9ac	-0.058831856
44	0xbcb3bc6b	-0.02194043
45	0x3e102744	0.14077479
46	0xbdb2e1a8	-0.08734447
47	0x3ed096aa	0.40739948
48	0x3e00b91f	0.12570618
49	0x3e12d3f0	0.1433866
50	0x3d178dca	0.037000455
51	0xbe06966c	-0.13143319
52	0x3e9d8baa	0.30770618
53	0x3e537dee	0.20653507
54	0xbe1cc5c0	-0.1530981
55	0xbdfe9dc5	-0.12432436
56	0x3dc092f2	0.094030276
57	0xbda71b35	-0.08159486
58	0x3cbdf685	0.023188839
59	0xbd465023	-0.048416268
60	0xbcc27047	-0.023735179
61	0xbd599384	-0.053119197
62	0xbd82d332	-0.063879386
63	0x3e20eca8	0.15715277
64	0xbdcc47bb	-0.09974619
65	0x3e59aca5	0.21257265
66	0xbe82c45e	-0.2554044
67	0x3e1c448e	0.15260527
68	0xbe4b567f	-0.19857214
69	0xbd512cea	-0.051068224
70	0xbdf40b56	-0.11916225
71	0xbcd77945	-0.026302943
72	0x3cbe010d	0.02319386
73	0xbcb74aff	-0.022374628
74	0xbea5e444	-0.32400715
75	0xbe868b1e	-0.26278013
76	0x3d868c44	0.06569722
77	0xbe066367	-0.13123856
78	0xbd80beec	-0.062864155
79	0xbd0762ba	-0.033053137
80	0x3b7d6816	0.0038666776
81	0xbe995264	-0.29945672
82	0x3e8d998d	0.27656212
83	0x3da2a4b8	0.07941574
84	0xbd9b4943	-0.07582333
85	0x3cf34569	0.029696183
86	0xbcfd6175	-0.03093026
87	0xbc056394	-0.008141417
88	0x3ba31d23	0.0049778386
89	0xbd4563cf	-0.048190888
90	0x3e8fc831	0.2808242
91	0xbeea831f	-0.45803162
92	0xbe9e9088	-0.30969644
93	0xbdae55a3	-0.08512428
94	0xbd4c9b34	-0.0499527
95	0x3e6c463c	0.23073667
96	0xbdd99ef3	-0.1062602
97	0xbc7b930e	-0.015354885
98	0xbd47b3e9	-0.04875556
99	0xbed303d0	-0.41213846
100	0x3e312c6d	0.17302103
101	0x3d6dcd68	0.05805722
102	0x3d8f76dc	0.070050925
103	0xbdfb3479	-0.12265868
104	0x3cf3c48c	0.029756807
105	0xbf030cb4	-0.5119126
106	0x3e594375	0.21217139
107	0x3e81ae23	0.25328168
108	0xbf0aa2c8	-0.54154634
109	0x3df342f0	0.11878002
110	0xbe30c10f	-0.17261146
111	0xbe2a2b18	-0.16618001
112	0xbd0d27f3	-0.034461927
113	0xbe3536bf	-0.17696665
114	0xbeb0e12f	-0.345468
115	0xbdc184ce	-0.094491586
116	0x3dffe715	0.12495247
117	0x3aaac4e6	0.0013028651
118	0xbd01eb83	-0.031718742
119	0xbc791758	-0.0152033195
120	0xbe2dd237	-0.16974722
121	0x3dc9410a	0.09826858
122	0xbd6899cf	-0.05678731
123	0xbd9bd763	-0.07609441
124	0xbc97b006	-0.018516552
125	0xbc2bd335	-0.010487367
126	0xbe77e68b	-0.24209039
127	0x3cd8d12e	0.026466932
128	0xbeb09586	-0.34489077
129	0x3e50fd57	0.20409141
130	0xbf091dc9	-0.53561074
131	0xbcd9032d	-0.026490772
132	0xbdbb2bd9	-0.09139223
133	0x3d5a5df4	0.053312257
134	0xbeacbbb0	-0.33736944
135	0xbc5b8d06	-0.013400322
136	0x3dab258b	0.0835677
137	0x3cee2cd9	0.02907412
138	0xbe60fb65	-0.219709
139	0x3e310103	0.17285542
140	0xbf26c048	-0.6513715
141	0xbe15418d	-0.14575787
142	0xbe733d47	-0.23753844
143	0xbe9f4f51	-0.311152
144	0x3d9bedfc	0.07613751
145	0xbd1e0a89	-0.038584266
146	0xbf06a0e6	-0.5258926
147	0xbea17697	-0.3153579
148	0xbf19310d	-0.5984047
149	0x3ea1e68d	0.3162121
150	0xbda2cfe2	-0.07949807
151	0x3cab34a8	0.020899132
152	0x3d520cb6	0.051281653
153	0x3e153112	0.145695
154	0xbe1928e9	-0.14957012
155	0xbe964df5	-0.29356351
156	0xbd15835b	-0.036502223
157	0x3cc43302	0.023950104
158	0xbd851ed8	-0.065000236
159	0x3d8159b2	0.06315936
160	0x3cc34677	0.023837311
161	0x3ed29247	0.41127226
162	0xbcb86756	-0.022510212
163	0xbe084d10	-0.13310647
164	0xbd263c99	-0.040585134
165	0xbec023c6	-0.37527293
166	0xbec88c40	-0.39169502
167	0xbe311f73	-0.17297153
168	0xbd2adf24	-0.04171671
169	0xbd9c9925	-0.076463975
170	0xbcad6458	-0.021166012
171	0xbd015a24	-0.031580105
172	0x3cd89026	0.026435923
173	0xbdabd5f2	-0.08390416
174	0xbe279b97	-0.16367947
175	0x3e7ae9a8	0.24503195
176	0x3e9b92f5	0.30385557
177	0xbde39f20	-0.11114335
178	0x3e185470	0.1487596
179	0xbf1d4542	-0.61433804
180	0xbcd38590	-0.025820524
181	0xbcf50eac	-0.029914223
182	0xbc9eb97e	-0.019375559
183	0xbd8f37a1	-0.06993032
184	0xbe45456f	-0.19264768
185	0x3efcbad4	0.4936129
186	0x3df2e811	0.118606694
187	0x3e42b532	0.19014433
188	0xbdb4665f	-0.08808588
189	0xbe2a25ae	-0.16615936
190	0x3e9c4f2b	0.3052915
191	0xbebd436e	-0.36965507
192	0xbeabeaca	-0.33577567
193	0x3e0371bd	0.12836356
194	0x3e707aa0	0.23484278
195	0x3c3e39a2	0.01161042
196	0x3d242a3f	0.04007935
197	0x3bb74201	0.005592585
198	0xbd1a19c9	-0.037622247
199	0xbc5685ba	-0.013093406
200	0xbcac84af	-0.021059362
201	0xbe254a08	-0.16141522
202	0xbce074d4	-0.027399458
203	0xbddb189d	-0.10698054
204	0xbcbfc950	-0.023411423
205	0xbdc6ae4d	-0.09701214
206	0x3d4c5ff9	0.049896214
207	0xbe2a8c89	-0.16655172
208	0x3dd5796a	0.104235485
209	0xbd7c1cb5	-0.061550815
210	0xbda6fdb3	-0.08153858
211	0xbd87a510	-0.0662328
212	0x3c8cd3e4	0.017190881
213	0x3e8a5a36	0.2702195
214	0xbe278bdb	-0.16361944
215	0x3ebfe4ec	0.3747934
216	0xbe6cedda	-0.23137608
217	0x3d4adf88	0.049529582
218	0xbe1b8238	-0.15186393
219	0x3e43fa17	0.1913837
220	0x3ceada6b	0.028668603
221	0xbda340dd	-0.07971356
222	0xbe4ca76d	-0.19985743
223	0x3df75347	0.12076431
224	0x3e0ff0cb	0.14056699
225	0xbea36882	-0.3191567
226	0xbeec1f18	-0.46117473
227	0xbe632b1f	-0.22184418
228	0x3e0e6bba	0.13908282
229	0xbe1b9432	-0.15193251
230	0xbe834852	-0.25641114
231	0x3d14cedd	0.036330093
232	0x3d70bcb9	0.05877373
233	0xbda732fe	-0.08164023
234	0x3ea9999f	0.33125016
235	0xbf071314	-0.52763486
236	0xbedf590a	-0.4362262
237	0xbdb717a0	-0.08940053
238	0x3d078894	0.033089235
239	0x3c0c80f5	0.008575668
240	0xbd0272ad	-0.031847645
241	0xbcf582ce	-0.0299696
242	0xbd9eb648	-0.07749611
243	0xbe8e8b5a	-0.27840692
244	0x3d412e45	0.047163267
245	0xbc6f8eb3	-0.0146214245
246	0x3e8ff777	0.28118488
247	0xbe59068f	-0.21193908
248	0xbdffb870	-0.124863505
249	0xbdf93fe8	-0.12170392
250	0x3e694dc7	0.22783576
251	0x3d9875a0	0.0744431
252	0xbe5e27b8	-0.21694839
253	0xbb3672a7	-0.0027839334
254	0xbd4a46af	-0.049383815
255	0x3d650525	0.05591311

conv1.bias f4 [256]
0	0xbf02d913	-0.5111248
1	0xbf64c089	-0.89356285
2	0xbebe1c5b	-0.37131009
3	0xbea13034	-0.3148209
4	0xbf77101d	-0.9650896
5	0x3acc3639	0.0015580124
6	0xbe8a5170	-0.27015257
7	0xbef92b8a	-0.4866603
8	0xbeaedea0	-0.34154224
9	0xbe27f3ed	-0.16401644
10	0xbf1d06e9	-0.6133867
11	0xbf520cbf	-0.820507
12	0xbf012e1f	-0.50461
13	0xbedf09b1	-0.4356208
14	0xbebe0938	-0.37116408
15	0x3e0f4b79	0.13993634
16	0xbf70dd26	-0.94087446
17	0xbd0a1a3e	-0.033716433
18	0xbd462606	-0.048376106
19	0xbeaa176b	-0.33220991
20	0xbe1cfadd	-0.15330072
21	0xbe435e5e	-0.19078967
22	0xbd88954e	-0.066691026
23	0xbe397c74	-0.18113881
24	0xbd8ce263	-0.06879117
25	0xbee49faf	-0.4465308
26	0xbe605442	-0.21907142
27	0x3dc22c30	0.09481084
28	0xbe417b86	-0.18894777
29	0x3d94795e	0.072497115
30	0xbf1d59eb	-0.6146533
31	0xbea7a116	-0.32740086
32	0xbeaf36e2	-0.3422156
33	0x3c86e877	0.01646827
34	0xbeb1dc9b	-0.3473862
35	0xbf159b3e	-0.58440006
36	0xbf049316	-0.51786935
37	0xbe5f88c9	-0.21829523
38	0xbd4df7b2	-0.05028505
39	0xbe69676a	-0.22793356
40	0xbcd51682	-0.02601171
41	0xbeb7d588	-0.359051
42	0xbec33a86	-0.38130587
43	0xbe85a608	-0.26103234
44	0x3de2aa69	0.110676594
45	0xbf65e120	-0.8979664
46	0x3e1961d7	0.14978729
47	0xbed71b72	-0.42013127
48	0x3d1ff99d	0.03905641
49	0xbee7078a	-0.4512294
50	0xbe54a28a	-0.20765129
51	0x3dc85f62	0.09783818
52	0xbdedfba4	-0.11620262
53	0x3bd04010	0.006355293
54	0xbeb030ec	-0.34412324
55	0xbed08a04	-0.40730298
56	0xbe78542c	-0.24250859
57	0xbe2b452e	-0.16725609
58	0xbf1c9187	-0.6115956
59	0x3e332172	0.17493227
60	0xbe8e842d	-0.27835217
61	0xbd9cf234	-0.07663384
62	0xbf81ed0b	-1.0150465
63	0x3c671ead	0.014106435
64	0x3bd02006	0.0063514737
65	0xbe878638	-0.26469588
66	0xbe15d7e7	-0.14633141
67	0x3e1731ba	0.14765063
68	0xbe12f2db	-0.14350455
69	0xbcde2691	-0.027118
70	0xbe7a9bfb	-0.24473564
71	0xbe93daa0	-0.28877735
72	0xbef6bb7b	-0.4818991
73	0xbe8e6ca7	-0.2781727
74	0xbbc7365d	-0.0060794787
75	0xbf056e3d	-0.52121335
76	0x3c9e3243	0.019311076
77	0xbe18de3c	-0.14928526
78	0xbf0c478e	-0.54796684
79	0x3de02785	0.10945038
80	0xbe226670	-0.1585939
81	0xbec5870e	-0.385796
82	0xbea9617b	-0.33082184
83	0xbf0d5970	-0.55214596
84	0xbef324bb	-0.4748896
85	0xbe98aa2f	-0.2981734
86	0x3da254e9	0.079263516
87	0x3e35b4b3	0.17744713
88	0x3dc58298	0.096440494
89	0xbe33cd53	-0.17558794
90	0xbe0fd003	-0.14044194
91	0xbd81355d	-0.06309006
92	0x3e0f8a75	0.14017661
93	0xbd5ce88e	-0.05393272
94	0x3d3fdb92	0.046840258
95	0xbf3a0c4b	-0.7267501
96	0xbf0e82f6	-0.5566858
97	0xbef6d599	-0.48209837
98	0xbec8a229	-0.39186218
99	0xbe8cdf02	-0.2751389
100	0xbe11a3aa	-0.14222589
101	0xbf63b947	-0.88954586
102	0xbe9d1760	-0.30681896
103	0xbeb34ef1	-0.35021165
104	0xbeaedbdc	-0.34152114
105	0x3ce7afca	0.028282065
106	0xbf00b7f5	-0.50280696
107	0x3d291480	0.041279316
108	0xbe1f88b7	-0.15579496
109	0xbeb9bd92	-0.36277443
110	0xbee1b807	-0.44085714
111	0x3d99b581	0.07505322
112	0xbec829fe	-0.39094537
113	0xbebe23aa	-0.37136585
114	0xbdbb24b8	-0.09137863
115	0xbe92af5d	-0.28649417
116	0xbf4652f8	-0.7747035
117	0xbdb887e2	-0.090102926
118	0x3d8f972c	0.070112556
119	0xbd739205	-0.059465427
120	0xbedee050	-0.43530512
121	0x3d989d83	0.07451918
122	0xbea9a5be	-0.33134264
123	0xbe2172b6	-0.15766415
124	0x3cc9b3c4	0.024621852
125	0xbca4da5b	-0.020123651
126	0xbd0a460f	-0.03375822
127	0xbf21bd24	-0.6317923
128	0xbf16461a	-0.58700716
129	0xbe29c514	-0.16579086
130	0x3d568ae6	0.052378558
131	0xbebbcc88	-0.36679482
132	0xbebabb99	-0.3647125
133	0xbf01cddc	-0.5070474
134	0xbee78eb7	-0.4522607
135	0xbee6b06e	-0.4505648
136	0xbec697bc	-0.3878764
137	0x3dc84700	0.09779167
138	0x3d9aecef	0.07564723
139	0xbf3d34bc	-0.7390859
140	0xbf3ca6b5	-0.73691875
141	0xbda3bc04	-0.079948455
142	0xbe89a45a	-0.26883203
143	0xbe523ec2	-0.20531753
144	0xbe5dc8fb	-0.21658699
145	0xbeff8b73	-0.4991108
146	0x3d516257	0.051119175
147	0xbe734396	-0.2375625
148	0x3d1dd2c5	0.038531084
149	0xbedd7180	-0.43250656
150	0xbe191ad0	-0.14951634
151	0xbef74b0b	-0.4829944
152	0x3d8c603e	0.06854294
153	0xbd808fde	-0.062774405
154	0xbe2167e6	-0.1576229
155	0xbef21298	-0.4727981
156	0xbe34e5ba	-0.17665759
157	0xbdd02a14	-0.10164276
158	0x3e0f4c7e	0.13994023
159	0xbe9b94a6	-0.30386847
160	0x3c649b13	0.013952988
161	0xbf0b4614	-0.54403806
162	0xbf125afe	-0.57170093
163	0xbe7644a1	-0.24049617
164	0xbf43c44e	-0.7647141
165	0x3d5c4442	0.053776033
166	0xbd865fa2	-0.06561209
167	0xbe912dda	-0.28355294
168	0xbe142c65	-0.1447006
169	0xbe93bc57	-0.2885463
170	0xbddcdfa7	-0.10784846
171	0xbea596ea	-0.323417
172	0xbefe683c	-0.496889
173	0xbf06c045	-0.5263713
174	0x3dc5994e	0.09648381
175	0xbf14377f	-0.5789718
176	0x3deafb4c	0.11473712
177	0x3e36d664	0.17855221
178	0xbedf7f66	-0.43651885
179	0xbe8d9340	-0.27651405
180	0xbf250202	-0.6445619
181	0x3d6c0c9f	0.057629224
182	0xbd5a6022	-0.053314336
183	0xbdfdb0e8	-0.12387258
184	0xbd411af3	-0.04714484
185	0x3dba705f	0.09103464
186	0xbf62b8a8	-0.88563013
187	0xbe50f2bb	-0.20405094
188	0xbe564848	-0.2092601
189	0xbecac99b	-0.39606938
190	0xbf0b0716	-0.5430769
191	0x3e23e88c	0.16006678
192	0xbe2e1960	-0.17001867
193	0xbe993d9f	-0.29929826
194	0xbeef65c6	-0.46757334
195	0xbb2284d3	-0.0024798408
196	0xbeb7ff60	-0.35937023
197	0xbf03f21b	-0.515413
198	0xbe9b36c5	-0.30315223
199	0x3d1248c4	0.035713926
200	0xbf16f46f	-0.58966726
201	0xbf108653	-0.5645496
202	0xbf242eed	-0.64134103
203	0xbd230b93	-0.03980596
204	0xbd7eb878	-0.06218764
205	0xbec68f53	-0.38781223
206	0xbd55c096	-0.052185617
207	0xbf0ffe41	-0.56247336
208	0xbe888a7e	-0.2666816
209	0xbe2b6d37	-0.16740881
210	0x3d8add34	0.067804724
211	0x3e38eae8	0.1805836
212	0xbed6b8ab	-0.41937765
213	0xbf203bd5	-0.62591296
214	0xbeb11382	-0.34585196
215	0x3e4cf8cf	0.20016788
216	0xbe259a19	-0.16172065
217	0xbe8051e7	-0.25062487
218	0xbe906c66	-0.282077
219	0x3bd1c98f	0.0064022015
220	0xbe9e8351	-0.3095956
221	0xbe43ba5b	-0.19114058
222	0xbe8bc2cc	-0.27297056
223	0xbe4c5c0a	-0.19956985
224	0xbe9459a2	-0.28974634
225	0xbf3e0bee	-0.74236953
226	0xbefa924b	-0.48939738
227	0xbe3fea28	-0.18741667
228	0xbecd59d1	-0.40107587
229	0xbe7b9a33	-0.24570541
230	0x3e0bf41e	0.13667342
231	0xbe6b551e	-0.22981688
232	0xbf650d2b	-0.8947322
233	0xbe77eaa3	-0.242106
234	0x3ceeb5e9	0.029139476
235	0xbf1470fd	-0.57984906
236	0x3dc834ca	0.09775694
237	0xbe57a60b	-0.21059434
238	0x3e02061c	0.12697643
239	0xbe9f9644	-0.3116933
240	0xbded39b9	-0.11583275
241	0xbd936207	-0.071964316
242	0xbe49aae4	-0.19694096
243	0xbe6eecc1	-0.23332502
244	0xbf271899	-0.6527191
245	0xbeced5c9	-0.4039748
246	0xbea184d7	-0.3154666
247	0xbe85f313	-0.26162013
248	0xbf17b362	-0.5925809
249	0xbd8b2dd9	-0.06795854
250	0xbd6b6912	-0.05747325
251	0xbea461c9	-0.32105854
252	0xbe8370ed	-0.25672093
253	0x3da20d65	0.07912711
254	0xbdef9d95	-0.11699978
255	0xbf1862ff	-0.59526056

conv2.weight f4 [128, 256, 3]
0	0xba0eea4c	-0.0005451783
1	0xbd0cc9f2	-0.034372278
2	0xbc56ee2a	-0.013118306
3	0xbc8a1d21	-0.016859593
4	0xbc898fe3	-0.016792243
5	0x3c10e917	0.008844635
6	0x3bf8e2d4	0.0075953994
7	0xbc87f593	-0.016596591
8	0xbcd8c40d	-0.026460672
9	0xbc8dc0c0	-0.017303824
10	0xbd73cda4	-0.059522286
11	0x3c9d4abd	0.019200677
12	0xbba8f8ee	-0.005156628
13	0x3bf7e542	0.0075651715
14	0x3d4ca9c7	0.0499666
15	0x3bbd1fa8	0.005771596
16	0xbcb55bc9	-0.022138493
17	0xbd69acd7	-0.0570496
18	0x3b07ce51	0.002072234
19	0x3c85e908	0.01634647
20	0xbc35fcab	-0.011107604
21	0x3bd967e8	0.006634701
22	0x3d15d35b	0.036578517
23	0x3c1b2cdd	0.009471145
24	0xbd1d037f	-0.038333412
25	0x3b9ed927	0.004847664
26	0x3c45bf17	0.012069485
27	0x3c9e35ce	0.019312765
28	0xbb25dbc9	-0.0025308004
29	0xbd3195f9	-0.043355916
30	0x3c974beb	0.018468818
31	0x3c974e3a	0.018469919
32	0x3cb01cf6	0.021498185
33	0x3cf23239	0.029564964
34	0xbd3f1ae7	-0.046656515
35	0x3c9cbc73	0.019132828
36	0xbd11fb27	-0.03563991
37	0x3d29741d	0.0413705
38	0x3da8da17	0.08244722
39	0xbcd47eb7	-0.025939329
40	0xbc6af60b	-0.014340888
41	0xbd1af4d0	-0.037831128
42	0xb9e825a5	-0.00044278536
43	0xbc838d01	-0.016058447
44	0xbae25dfc	-0.0017270441
45	0xbc27bdf9	-0.010238164
46	0xbbd64bec	-0.0065398123
47	0xbcd0761c	-0.025446944
48	0x3b295708	0.0025839228
49	0xbc8f07b1	-0.017459722
50	0x3d30e2f6	0.043185197
51	0xbd0bb694	-0.034109667
52	0xbd32ddb1	-0.043668453
53	0xbd134e49	-0.03596333
54	0xbd5546d8	-0.052069515
55	0xbc5c3737	-0.013440899
56	0xbcd05d85	-0.025435219
57	0xbc255cb9	-0.010092908
58	0xbcd5d13c	-0.026100747
59	0xbd13e152	-0.036103554
60	0xbc497830	-0.012296721
61	0xbc2ba411	-0.010476128
62	0xbc87e979	-0.01659082
63	0x3c275dd3	0.0102152405
64	0xbccdb62e	-0.025111284
65	0xbcf1def3	-0.029525256
66	0x3c1ae39b	0.009453679
67	0x3c62b0b7	0.013836077
68	0x3b9e8b3f	0.004838377
69	0x3c0c5882	0.008566024
70	0xbd26d7ef	-0.040733274
71	0x3c8e65f8	0.017382607
72	0xbc38ef34	-0.011287499
73	0xbca54658	-0.020175144
74	0xbca7c656	-0.020480316
75	0x3bcecfd6	0.006311397
76	0xbd369f06	-0.04458525
77	0xbcf15d3a	-0.0294634
78	0xbd599412	-0.053119726
79	0xbcde70ef	-0.02715346
80	0xbcc3b843	-0.023891574
81	0xbc31c5bd	-0.010850367
82	0x3abe5e8a	0.0014524024
83	0xbcb562a5	-0.022141764
84	0xbce42438	-0.027849302
85	0xbcc93c57	-0.024564905
86	0xbc0d1103	-0.008610013
87	0xba09a748	-0.0005251062
88	0xbd1d0c80	-0.038342
89	0xbd8498ba	-0.06474443
90	0xbb90adc8	-0.0044152476
91	0xbd1a8225	-0.03772177
92	0xbce2a478	-0.027666315
93	0xbca8f463	-0.020624345
94	0x3c8ea649	0.017413275
95	0xbcae1188	-0.021248594
96	0x3c57de10	0.013175502
97	0x3bc615cc	0.006045079
98	0xbce47273	-0.027886605
99	0xbd1c0dc8	-0.03809908
100	0x3bf0bfb6	0.0073470725
101	0xbc33aea1	-0.010966928
102	0xbcbeb033	-0.023277378
103	0xbcd81086	-0.026375066
104	0x3c273225	0.0102048265
105	0x3c5fee0d	0.013667596
106	0xbcb50818	-0.022098586
107	0xbc2f6955	-0.010706265
108	0xbc0ee469	-0.008721449
109	0xbc8955aa	-0.01676448
110	0x3c64c8a2	0.01396385
111	0xbd48ad90	-0.048993647
112	0xbd51890e	-0.051156096
113	0xbd11d6e0	-0.03560531
114	0xbb0544a7	-0.002033511
115	0xbc63d8b0	-0.013906643
116	0xbd8a6cfa	-0.06759067
117	0xbcb905e1	-0.022585811
118	0x3b08e714	0.0020889686
119	0xbc52c369	-0.012863972
120	0xbd40ac20	-0.04703915
121	0xbc6286b2	-0.013826059
122	0xbcb4b23b	-0.022057643
123	0xbd16ff04	-0.036864296
124	0xbb0f7174	-0.0021887692
125	0x3a8d3ca8	0.0010775523
126	0xbce336c2	-0.027736071
127	0xbc37e5a9	-0.011224189
128	0xbcba4540	-0.0227381
129	0xbd0ed803	-0.034873974
130	0xbd5b4a87	-0.05353787
131	0xbae333b5	-0.0017334135
132	0xbd692ba5	-0.05692639
133	0xbd6e059b	-0.058110815
134	0xbd32b1dd	-0.043626655
135	0x3b72ace0	0.003702931
136	0xbcf843da	-0.030305792
137	0x3c23754f	0.009976699
138	0xbd5154aa	-0.051106133
139	0xbc4cb9e7	-0.012495494
140	0x3a08f706	0.00052247976
141	0x3ce39716	0.027782004
142	0xb7e06133	-2.6748143e-05
143	0x3c99c41e	0.018770274
144	0xbc78c1f2	-0.015182959
145	0xbd5fc35f	-0.05462968
146	0x3c6da1de	0.014503924
147	0xbc8ca5d6	-0.01716892
148	0xbcc7c7a7	-0.024387194
149	0x3ca07000	0.019584656
150	0x39c98016	0.0003843314
151	0xbd590dce	-0.05299168
152	0xbcbde6a0	-0.02318126
153	0xbaff6439	-0.0019484825
154	0xbc0cc542	-0.008591952
155	0xbc09fd00	-0.008422136
156	0xbd019474	-0.031635717
157	0xbba1927f	-0.004930794
158	0x3bd367c0	0.006451577
159	0x3c88c22c	0.01669415
160	0xbc158d38	-0.009127907
161	0xba47cf39	-0.0007622126
162	0xbd0e33af	-0.034717258
163	0xba748085	-0.0009327012
164	0xbd08a67f	-0.033361908
165	0xbc87528a	-0.01651885
166	0xbd110589	-0.03540567
167	0xbcdeaa6d	-0.027180875
168	0xbc95f512	-0.018305335
169	0xbd2ef23a	-0.042711474
170	0xbd081688	-0.033224612
171	0x3cee68d5	0.029102722
172	0xbbfd2257	-0.007725041
173	0xbb8cf06e	-0.0043011224
174	0xbc9b964b	-0.018992564
175	0xbd12e7fa	-0.03586576
176	0xbcb488e8	-0.022037938
177	0xbc84a816	-0.01619343
178	0xbd0476fe	-0.032340042
179	0x3c0db25f	0.008648484
180	0xbba964e7	-0.005169499
181	0xbd1ac520	-0.03778565
182	0xbd418181	-0.047242645
183	0x3b4e5a2c	0.0031486852
184	0xbbd3ca2c	-0.0064633097
185	0xbcdafdfe	-0.026732441
186	0xbc676ebe	-0.014125524
187	0xbc7d667b	-0.015466328
188	0xbd25a8a5	-0.040444035
189	0xbd12c53c	-0.03583263
190	0xbcf50559	-0.029909777
191	0xbd49dfbd	-0.04928564
192	0xbd37c834	-0.044868663
193	0xbd431e5a	-0.047636367
194	0xbcb7fe4f	-0.022460131
195	0xbd4d555f	-0.050130244
196	0xbcdf0308	-0.027223125
197	0xbc8348b8	-0.016025886
198	0x3811199b	3.459454e-05
199	0xbc2945de	-0.010331599
200	0xbc81945b	-0.015817812
201	0xbd226835	-0.03965016
202	0x3bf5e89e	0.007504537
203	0xbd2ef290	-0.042711794
204	0xbd2b39b2	-0.04180307
205	0xbd0052e1	-0.03132904
206	0x3c848bb3	0.016179895
207	0xbc7f282a	-0.015573541
208	0x3c9bc0d5	0.019012848
209	0xbd554aef	-0.052073415
210	0xbd1e509f	-0.038651105
211	0xbd702476	-0.05862852
212	0x3c6e1e43	0.014533582
213	0xbc9c2e97	-0.019065185
214	0xbc13e6f0	-0.009027228
215	0x3c474890	0.012163296
216	0x3c813f5b	0.01577728
217	0xbc52e33f	-0.0128715625
218	0xbc9e5377	-0.019326909
219	0x3c41fee9	0.0118405605
220	0x3ba1dbb8	0.0049395226
221	0x3cd9b322	0.026574675
222	0xbc18dbe4	-0.00932977
223	0x3ba32899	0.004979205
224	0xbd498e78	-0.049208134
225	0xbd2f26dd	-0.042761672
226	0x3d084b81	0.03327513
227	0xbccb52a0	-0.024819672
228	0xbb8b211d	-0.004245891
229	0x3cad78d8	0.021175787
230	0xbd37117a	-0.0446944
231	0xbcc74189	-0.024323242
232	0xbd74dabd	-0.059778918
233	0xbc98913c	-0.01862394
234	0xbc6f4b63	-0.014605376
235	0xbc2bf831	-0.010496185
236	0xbcb3d573	-0.021952366
237	0xbc8966d9	-0.016772674
238	0xbbc01569	-0.0058619273
239	0xbd6d4e4e	-0.057936005
240	0xbcb23737	-0.021754844
241	0xbc6dac78	-0.014506452
242	0xbd101bc5	-0.035182733
243	0x3ad2ec8f	0.0016092228
244	0xbb817313	-0.0039504855
245	0xbc70b2ce	-0.014691068
246	0xbc4e0a55	-0.012575706
247	0x3d2b817c	0.041871533
248	0xbca677aa	-0.020320732
249	0xbba30610	-0.004975088
250	0x3ca593ed	0.020212138
251	0xbd21b972	-0.039483495
252	0xbcc2a88c	-0.02376201
253	0xbc2a14b7	-0.010380915
254	0xbc8516b9	-0.016246187
255	0xbd82f612	-0.063945904

conv2.bias f4 [128]
0	0xbd7e2d96	-0.062055193
1	0x3d82b1fa	0.063816026
2	0xbcfbaf30	-0.030723184
3	0x3a9d0bb3	0.0011981636
4	0xbe046c6b	-0.12931983
5	0xbde8d431	-0.11368597
6	0xbd9719c5	-0.07377962
7	0xbdb6d3b8	-0.08927101
8	0xbe03ce3d	-0.12871642
9	0xbdb4fb92	-0.08837046
10	0xbc98f25a	-0.01867025
11	0xbd5c46f4	-0.053778604
12	0xbd12743d	-0.035755385
13	0xbdeee0a3	-0.1166394
14	0x3e529f22	0.20568517
15	0xbbe22e13	-0.006902465
16	0xbb9b5de8	-0.004741419
17	0x3eac7533	0.33683166
18	0x3c934f01	0.017982008
19	0xbd13bc5f	-0.036068317
20	0xbcc2a6a0	-0.023761094
21	0xbe1bb841	-0.15207006
22	0xbe5061a9	-0.20349754
23	0xbd00bcc5	-0.031430025
24	0x3cadacf9	0.021200644
25	0xbb8034b0	-0.003912531
26	0xbc3361a3	-0.010948571
27	0x3c8e9a6e	0.017407622
28	0x3d8e57c5	0.069503345
29	0xbd6ae017	-0.057342615
30	0x3de2358e	0.11045371
31	0x3e52a77b	0.20571701
32	0xbd098a5d	-0.03357922
33	0x3c07681f	0.0082645705
34	0xbdd4853e	-0.103769764
35	0x3f0371b5	0.5134538
36	0x3c5364f1	0.012902484
37	0xbd7e0cd2	-0.062023945
38	0xbe012195	-0.12610467
39	0xbd05c933	-0.03266258
40	0xbdc0a2ba	-0.09406038
41	0x3c1076eb	0.008817415
42	0xbe1f88b6	-0.15579495
43	0xbd6a7768	-0.05724278
44	0x3ea520a5	0.32251468
45	0xbd3681e3	-0.044557463
46	0xbe643693	-0.22286443
47	0xbe0c8e7a	-0.13726225
48	0xbe63f114	-0.22259933
49	0xbce873b5	-0.028375486
50	0xbd026063	-0.031830203
51	0x3dfff065	0.124970235
52	0x3c7ebc86	0.015547877
53	0xbd29ab81	-0.041423324
54	0xbd2fb61e	-0.04289829
55	0xbdadf745	-0.084944285
56	0xbe2a6c19	-0.16642798
57	0xbc4d35d4	-0.012525041
58	0xbdb22916	-0.08699243
59	0xbd8cfa59	-0.068836875
60	0x3dcf9ac4	0.10136941
61	0x3c8c38a1	0.017116847
62	0x3e907ac5	0.28218666
63	0x3b5513b6	0.003251297
64	0xbe6ec280	-0.23316383
65	0xbe1479ca	-0.14499584
66	0x3d1bc9ac	0.038034126
67	0xbca71a7c	-0.02039837
68	0xbe253e85	-0.1613713
69	0xbd9f3a85	-0.077748336
70	0x3c7b5934	0.015341092
71	0xbd7179e9	-0.058954153
72	0xbec4e2c4	-0.38454258
73	0xbcd7e822	-0.026355807
74	0x3dab7646	0.08372168
75	0xbd498c0e	-0.049205832
76	0xbcce31f3	-0.025170302
77	0xbde74bab	-0.112937294
78	0xbbc03838	-0.005866077
79	0xbe8af979	-0.27143458
80	0x3e45f86e	0.1933305
81	0xbc6cd81a	-0.0144558195
82	0xbdb679fa	-0.08909984
83	0xbcdff683	-0.027339226
84	0xbe08b7c0	-0.13351345
85	0xbd14c791	-0.036323134
86	0xbc4f20b7	-0.012642077
87	0x3b9b5705	0.004740598
88	0x3db0dd85	0.086360015
89	0xbda18e3a	-0.07888456
90	0xbca98ab7	-0.020696027
91	0xbde88a33	-0.113544844
92	0x3d44706a	0.04795877
93	0xbd32ee3e	-0.043684237
94	0xbc14e8c6	-0.009088701
95	0xbdbf62f1	-0.093450435
96	0xbd5ef2fc	-0.054430947
97	0xbd384b55	-0.044993717
98	0xbdfa3088	-0.12216288
99	0x3c7ca2ab	0.015419642
100	0x3b563134	0.0032683136
101	0xbc020d64	-0.007937763
102	0xbce9cbbd	-0.028539533
103	0xbe61c325	-0.22047098
104	0xbd3da1a9	-0.04629675
105	0xbcec9e17	-0.028883977
106	0x3d6368c4	0.055519834
107	0x3e1f1fb5	0.15539439
108	0xbe3b0d4c	-0.18266791
109	0xbe6f5562	-0.23372415
110	0xbcad5684	-0.021159418
111	0xbd80f9e5	-0.062976636
112	0xbcbf3c4a	-0.023344178
113	0xbce1709f	-0.027519522
114	0x3e92651a	0.2859276
115	0x3d03cfa6	0.03218045
116	0x3d1f8cef	0.038952764
117	0x3e70cc3b	0.23515408
118	0x3bacce4f	0.0052736173
119	0xbd1c591c	-0.03817092
120	0x3e26a25c	0.16272873
121	0x3af68c34	0.0018810094
122	0xbd1f1f48	-0.03884819
123	0xbcdedcd6	-0.027204912
124	0xbf123a73	-0.57120436
125	0x3e8aa77d	0.27080908
126	0x3e9c19ba	0.30488378
127	0x3c63b284	0.013897542

conv3.weight f4 [64, 128, 3]
0	0xbc209d7c	-0.009803172
1	0x3d2ead3d	0.04264568
2	0xbd215781	-0.03939009
3	0x3e9e33aa	0.30898792
4	0x3e0e56a6	0.13900241
5	0x3e477b40	0.1948061
6	0x3cb61191	0.022225173
7	0xbd0c72c1	-0.034289125
8	0x3c1dabeb	0.009623508
9	0x3d75a02a	0.059967197
10	0xbcd10a4d	-0.025517607
11	0x3c0c3bb3	0.008559155
12	0xbdb3f02c	-0.087860435
13	0xbcd8f549	-0.026484149
14	0x3ca3add3	0.019980347
15	0xbde029ff	-0.1094551
16	0xbd3171b3	-0.043321323
17	0xbd595706	-0.053061508
18	0xbb3263c4	-0.002722011
19	0xbcbd295d	-0.023091013
20	0xbd226c0c	-0.039653823
21	0x3d90a758	0.07063168
22	0xbcd257e2	-0.025676671
23	0xbdbc99fe	-0.09209059
24	0xbe70eef7	-0.23528658
25	0x3e3dfa4d	0.18552513
26	0x3e385f8b	0.18005197
27	0x3cd0e58d	0.025500083
28	0xbdc97c54	-0.09838167
29	0xbd8478dd	-0.06468365
30	0xbcd45c2a	-0.025922853
31	0x3cbf03f1	0.02331731
32	0x3ca4fa72	0.020138953
33	0x3d2765bd	0.04086851
34	0x3c06bf90	0.008224383
35	0x3d282eae	0.041060142
36	0x3cc89885	0.02448679
37	0xbd3a6729	-0.045508537
38	0xbde410a3	-0.11135986
39	0xbe04ea3d	-0.1297998
40	0xbe8f1c2d	-0.27951184
41	0xbea4e5bf	-0.32206532
42	0x3d8d81c8	0.069095194
43	0x3e0ded43	0.1386004
44	0x3e2807a3	0.16409163
45	0x3d017337	0.031604018
46	0x3d177ec7	0.03698614
47	0xbc6cc15d	-0.014450398
48	0x3b52f07b	0.0032186795
49	0xbb86ef5e	-0.0041178903
50	0xbc0b8ffc	-0.008518215
51	0x3df0a580	0.117503166
52	0xbe87d669	-0.2653077
53	0xbe75e600	-0.2401352
54	0xbd8b4ae5	-0.068013944
55	0x3ce30550	0.027712494
56	0xbd551db6	-0.052030288
57	0x3cd88f03	0.02643538
58	0x3ad22e22	0.0016035477
59	0x3ccbf9ff	0.02489948
60	0x3d043b5e	0.03228318
61	0x3cc49f8d	0.024001861
62	0x3d1b1cdd	0.037869323
63	0xbc90b8ab	-0.017666182
64	0xbd95f4ac	-0.07322058
65	0xb920a1d7	-0.00015319079
66	0xbb043c8d	-0.0020177693
67	0xbd8948d3	-0.06703343
68	0xbd2564f6	-0.040379487
69	0x3da0a6b9	0.078443
70	0x3e725eaa	0.23668924
71	0xbead83db	-0.3388966
72	0xbe4e800f	-0.20166038
73	0xbd3bc607	-0.04584315
74	0xbe995725	-0.29949299
75	0xbdd7db63	-0.105398916
76	0x3e10c12a	0.14136186
77	0xbe83f98a	-0.2577632
78	0xbd76a11a	-0.060212232
79	0x3caa808b	0.020813247
80	0xbcc3cc22	-0.023901049
81	0x3dd6439d	0.10462115
82	0xbdd8b81b	-0.1058199
83	0xbdba3203	-0.0909157
84	0x3eb64b51	0.35604337
85	0x3e213469	0.15742649
86	0x3eff8cf2	0.4991222
87	0x3b988b03	0.0046552434
88	0x3ce85f91	0.028365882
89	0xbd547eb9	-0.051878665
90	0xbe10bdca	-0.14134899
91	0x3cc937fc	0.024562828
92	0x3e85bf57	0.26122543
93	0xbe2248fb	-0.15848152
94	0x3b798176	0.003807155
95	0x3dd20ebf	0.10256719
96	0xbd1f25d7	-0.038854446
97	0x3d16d79c	0.036826715
98	0xbd545873	-0.051842164
99	0x3c5d4222	0.013504537
100	0xbc6ed5e7	-0.0145773655
101	0xbd02f103	-0.031968128
102	0x3c530e0d	0.012881768
103	0x3de28208	0.11059958
104	0xbcc68b07	-0.024236215
105	0xbd10bc73	-0.03533597
106	0x3e54d01a	0.2078251
107	0xbd3ff2f2	-0.04686255
108	0x3d8d9e6e	0.06914984
109	0xbdf1bac7	-0.11803203
110	0x3bd9f401	0.006651402
111	0x3f61d915	0.88221866
112	0x3de58d08	0.1120854
113	0xbe0a4737	-0.13503729
114	0x3d35f1f9	0.044420216
115	0xbd996e7d	-0.07491777
116	0xbe89474a	-0.26812202
117	0x3c546030	0.012962386
118	0xbc2ba4c6	-0.010476297
119	0x3d6757b1	0.056480113
120	0xbd91d389	-0.07120425
121	0xbda800a3	-0.082032464
122	0x3e1d993a	0.15390483
123	0xbcb2a34c	-0.021806382
124	0x3d0bcb4f	0.034129437
125	0xbccf1278	-0.025277361
126	0x3e36e032	0.17858961
127	0xbe453854	-0.19259769
128	0x3ea3faaa	0.3202718
129	0xbdcf2d26	-0.10116033
130	0x3c096a75	0.008387198
131	0xbd40cdb5	-0.047071178
132	0x3ddad785	0.10685638
133	0xbdefa8c4	-0.11702111
134	0xbdc4a407	-0.09601598
135	0x3ce4d9fa	0.02793597
136	0xbd7c139e	-0.061542146
137	0x3c936244	0.017991193
138	0x3e8b4057	0.27197525
139	0xbe061a1d	-0.13095899
140	0x3f0ff42d	0.5623196
141	0x3f73fd51	0.95308405
142	0xbe938765	-0.28814235
143	0x3d7c583f	0.061607596
144	0x3d524277	0.051332917
145	0xbccdc7bd	-0.025119657
146	0x3e054073	0.13012867
147	0x3cacc6cc	0.021090887
148	0x3c8ff4c6	0.017572772
149	0xbd5d876c	-0.054084226
150	0x3cc54f61	0.024085702
151	0xbd269d32	-0.040677257
152	0x3a9eab22	0.0012105445
153	0x3dee07a5	0.11622552
154	0xbde81f36	-0.11334078
155	0xbe68996e	-0.22714779
156	0x3d0d1924	0.034447804
157	0xbb6d6c09	-0.0036227724
158	0xbd5b0997	-0.053475942
159	0xbde7451d	-0.11292479
160	0xbddda016	-0.108215496
161	0xbda8a6b9	-0.08234925
162	0x3ca64aba	0.020299304
163	0x39496094	0.00019204832
164	0xbc902bcf	-0.017599015
165	0x3d976d11	0.0739385
166	0x3b074a49	0.0020643643
167	0xbd53e6ce	-0.051733784
168	0xbd13fe97	-0.036131468
169	0x3e8b4958	0.27204394
170	0x3f30739b	0.689264
171	0xbc207d43	-0.00979549
172	0x3c942e29	0.018088417
173	0x3adddfc4	0.0016927649
174	0x3da5f09e	0.08102535
175	0x3e530360	0.20606756
176	0x3e5ebd16	0.21751818
177	0xbcc574a6	-0.024103474
178	0x3aa93e55	0.0012912253
179	0xbb2882c6	-0.0025712713
180	0xbba22dac	-0.004949292
181	0xbe2b4480	-0.1672535
182	0xbc42090a	-0.011842975
183	0x3cd34ca8	0.025793388
184	0x3c00d528	0.00786332
185	0xbccff3b7	-0.025384767
186	0x3e94c063	0.2905303
187	0xbd8bc891	-0.068253644
188	0x3e4d637d	0.20057483
189	0xbdf4e6ce	-0.11958085
190	0xbcd4d698	-0.025981233
191	0x3daf692b	0.08564981
192	0x3ca6ecb9	0.02037655
193	0x3c6dfe47	0.0145259565
194	0x3d93faf2	0.072255984
195	0xbd95962c	-0.07304034
196	0x3de956c6	0.11393504
197	0x3e1ac5ff	0.15114592
198	0x3d16aa60	0.036783576
199	0xbca2c058	-0.019867107
200	0xbc89f787	-0.016841663
201	0x3cdb61bc	0.026780002
202	0x3c492fc9	0.012279459
203	0xbd53141f	-0.05153286
204	0x3d99f750	0.07517874
205	0x3d16c027	0.036804345
206	0xbd103c19	-0.035213564
207	0xbdad0ffb	-0.08450314
208	0xbd85f6e6	-0.06541233
209	0xbde80e07	-0.113308005
210	0xbd30c11e	-0.04315292
211	0x3d224ff5	0.039627034
212	0xbbc8bbc2	-0.006125898
213	0x3cb8e3cd	0.022569561
214	0x3c743106	0.014904266
215	0xbd6b3d02	-0.05743123
216	0x3e5babe3	0.21452288
217	0x3e084ec3	0.13311295
218	0x3e18d795	0.14925988
219	0x3d20aa3d	0.039224852
220	0xbd8b4fd9	-0.06802339
221	0xbdc78c5e	-0.0974357
222	0x3e310363	0.17286448
223	0x3d226528	0.03964725
224	0x3c97ec19	0.018545197
225	0xbd12dabb	-0.03585313
226	0x3ca94afb	0.020665636
227	0x3d03f062	0.03221167
228	0x3cc84c18	0.024450347
229	0xbce0e00f	-0.02745059
230	0x3b9e1508	0.0048242845
231	0x3e03b0cc	0.12860411
232	0x3e38b841	0.18039037
233	0xbeafd72e	-0.34343857
234	0x3c86951e	0.016428526
235	0xbd8535c0	-0.065043926
236	0xbd37a449	-0.04483441
237	0x3d36c3bd	0.044620264
238	0x3ea2332e	0.31679672
239	0x3e36a9b7	0.17838179
240	0xbeaa7310	-0.3329091
241	0x3dfa6e33	0.1222805
242	0x3e9426f9	0.28935984
243	0x3d03e46b	0.03220026
244	0xbcddd32e	-0.027078237
245	0x3c8478b3	0.016170835
246	0xbd1d5bbc	-0.038417563
247	0x3df89d5e	0.121393904
248	0xbdc8a2f5	-0.097967066
249	0x3c9b2a57	0.018941088
250	0xbcbc70c4	-0.02300299
251	0xbcc1d6ed	-0.023662055
252	0xbe2d46bd	-0.16921516
253	0x3d1be8ea	0.03806392
254	0xbd9931d7	-0.07480209
255	0xbd204ea4	-0.039137498

conv3.bias f4 [64]
0	0xbe049ec0	-0.12951183
1	0xbeb06965	-0.3445541
2	0xbdb21f58	-0.086973846
3	0xbe84aacc	-0.25911558
4	0x3e577fc9	0.2104484
5	0xbd304c1f	-0.043041345
6	0xbe71d922	-0.23617986
7	0xbebed9b8	-0.3727548
8	0xbdb45b46	-0.088064715
9	0xbebf926d	-0.37416402
10	0x3dc95db6	0.09832327
11	0xbe852988	-0.26008248
12	0xbe68a28b	-0.22718255
13	0xbbae3123	-0.005315916
14	0x3e246899	0.16055526
15	0x3b18b85e	0.002330325
16	0xbe46a867	-0.19400178
17	0xbe868123	-0.26270398
18	0x3c18031b	0.009278084
19	0xbe1c0694	-0.15236884
20	0xbe730bda	-0.2373499
21	0x3e37cdce	0.17949602
22	0xbdab3d4e	-0.08361302
23	0xbf033a0a	-0.51260436
24	0xbc1aed70	-0.009456024
25	0xbe08a3b6	-0.13343701
26	0xbcb3d490	-0.021951944
27	0xbeea750f	-0.45792434
28	0xbd087114	-0.033310965
29	0xbd84fdd2	-0.06493725
30	0x3dfcaf23	0.12338092
31	0x3c8addf9	0.016951548
32	0x3e82ca9d	0.25545207
33	0x3ddfaa9c	0.10921213
34	0xbd8924d6	-0.06696479
35	0xbea9d90e	-0.33173412
36	0xbd11802f	-0.035522636
37	0xbe4ea3a9	-0.20179619
38	0x3aeae3da	0.0017920688
39	0xbdc62831	-0.09675635
40	0xbea5390b	-0.32270083
41	0xbd8d1fc5	-0.06890825
42	0xbebf47f9	-0.37359598
43	0x3d0c2d73	0.03422303
44	0x3d9de6d0	0.077100396
45	0xbe3b495c	-0.18289703
46	0x3d8cdef4	0.068784624
47	0xbe19e862	-0.15030053
48	0x3f0ef393	0.55840415
49	0xbe5880ec	-0.2114293
50	0x3e0f535e	0.13996646
51	0xbe9e9460	-0.30972576
52	0xbe9955d3	-0.2994829
53	0xbe9cb1f7	-0.30604526
54	0xbe8613ba	-0.26186925
55	0xbdb36c26	-0.08760862
56	0x3de8e6f4	0.11372176
57	0x3b9cc8de	0.0047846874
58	0x3e005d1d	0.1253552
59	0x3d850055	0.06494204
60	0x3e4086c1	0.18801405
61	0x3d45f5af	0.048330005
62	0xbd972ba6	-0.07381372
63	0xbda9751f	-0.08274292

fc1.weight f4 [128, 256]
0	0x3e6ad993	0.2293456
1	0xbe8b858d	-0.2725033
2	0x3ef04b55	0.46932474
3	0x3e685574	0.22688848
4	0xbdb749c3	-0.08949616
5	0xbdbccd89	-0.0921889
6	0xbf3671ca	-0.7126738
7	0xbe454487	-0.19264422
8	0x3dee4f83	0.116362594
9	0x3f82890f	1.0198077
10	0x3e75b486	0.23994645
11	0x3eeb79b6	0.45991296
12	0x3e083c1e	0.13304183
13	0x3eb4b1a3	0.35291776
14	0xbe7d7814	-0.24752837
15	0x3daec379	0.08533377
16	0x3d3f6348	0.04672554
17	0x3e210d1a	0.15727654
18	0x3eac085b	0.33600125
19	0x3e8a4a33	0.27009735
20	0x3d26a95a	0.04068885
21	0x3e822240	0.25416756
22	0x3e32885e	0.17434832
23	0xbd2fa0b2	-0.04287786
24	0xbda2ecb1	-0.079553016
25	0x3e280479	0.16407956
26	0x3f28451a	0.6573044
27	0x3db6d79d	0.08927844
28	0x3e391099	0.18072738
29	0xbdb17bee	-0.08666216
30	0xbb39d1d1	-0.002835382
31	0xbd8ab6de	-0.067731604
32	0x3eb680cf	0.35645148
33	0xbe2b54f5	-0.16731627
34	0x3d400321	0.046877984
35	0xbe4e3ba2	-0.20139936
36	0x3e5558ac	0.20834607
37	0x3e02cd66	0.12773666
38	0x3e375743	0.17904381
39	0x3ede4cdb	0.4341801
40	0x3eda72c9	0.426657
41	0xbe810368	-0.2519791
42	0x3ea29806	0.3175661
43	0xbe73accf	-0.2379639
44	0x3e8c8965	0.27448574
45	0x3d73b2d3	0.059496712
46	0xbe085657	-0.13314186
47	0x3e8e6bb1	0.27816537
48	0x3d0b315f	0.03398263
49	0x3f23c808	0.639771
50	0xbd5decc1	-0.054180864
51	0xbf146d0b	-0.57978886
52	0x3dd3223d	0.10309265
53	0xbe0215e2	-0.1270366
54	0x3e4ee091	0.20202853
55	0x3ee9d628	0.456712
56	0xbd64e504	-0.05588247
57	0xbc8fec98	-0.017568871
58	0xbd513376	-0.051074468
59	0xbf3e565f	-0.7435054
60	0x3dfd0cec	0.1235598
61	0x3e2be80c	0.16787738
62	0xbd60c8a4	-0.054878846
63	0xbe8d7502	-0.27628332
64	0x3dee45b1	0.11634386
65	0x3e4b8a5f	0.19877003
66	0xbd54b488	-0.05192998
67	0xbe3d6228	-0.18494475
68	0xbbb6258f	-0.0055586766
69	0xbda4ac3b	-0.08040663
70	0x3ebc73f2	0.3680721
71	0x3e43c189	0.19116797
72	0x3d717567	0.058949854
73	0x3e8d7b71	0.2763324
74	0x3da1af45	0.07894758
75	0x3ed34070	0.412601
76	0x3e28a48f	0.16469024
77	0x3e8943cf	0.26809546
78	0xbe83cd72	-0.2574268
79	0xbc81b84c	-0.01583495
80	0xbe43189c	-0.19052356
81	0x3ead7546	0.33878535
82	0x3dabe0ed	0.083925106
83	0x3eee0ff2	0.4649654
84	0x3e541699	0.20711745
85	0x3d060898	0.03272304
86	0x3e36d5ea	0.17855039
87	0x3d973320	0.07382798
88	0x3d61b121	0.055100564
89	0xbd083228	-0.033250958
90	0x3ce37ecc	0.027770422
91	0xbd380bbc	-0.044933066
92	0x3ea7f964	0.32807457
93	0xbe5280a7	-0.2055689
94	0x3d9a0cd8	0.07521981
95	0x3d856a96	0.0651447
96	0xbea4cab5	-0.32185903
97	0xbf131d37	-0.57466453
98	0x3e24ce3c	0.16094297
99	0xbef44723	-0.47710523
100	0xbe1827de	-0.14858958
101	0xbdaf1dc0	-0.08550596
102	0x3dd0bd4f	0.10192358
103	0xb9e9d7cf	-0.00044602013
104	0x3e7c4882	0.24637035
105	0x3d5ab2dc	0.05339323
106	0x3e2a4583	0.16628079
107	0x3e459a5e	0.19297168
108	0x3da78e11	0.08181394
109	0x3d65be49	0.056089673
110	0x3d9335ef	0.071880214
111	0xbec3f294	-0.3827101
112	0x3dfc5cc3	0.123223804
113	0x3d1730e8	0.036911875
114	0x3f29c3df	0.663145
115	0xbe62eaed	-0.2215993
116	0x3d47feec	0.048827097
117	0x3ea35acc	0.3190521
118	0xbb7ba57a	-0.0038398192
119	0x3ea92dc8	0.3304274
120	0xbe40b434	-0.18818742
121	0x3bd2abde	0.0064291796
122	0x3e414c99	0.18876876
123	0xbe56168d	-0.2090704
124	0xbce09d8c	-0.027418874
125	0x3f1390a7	0.57642597
126	0xbe3c3065	-0.18377836
127	0xbd755a89	-0.059900794
128	0xbe5cc102	-0.21558002
129	0xbe112d92	-0.1417754
130	0x3dc964f5	0.09833709
131	0x3d901c0f	0.07036602
132	0x3f2a061f	0.6641559
133	0xbe0484c9	-0.12941279
134	0x3e5610c6	0.20904836
135	0xbe72c011	-0.2370608
136	0x3e60d8f8	0.21957767
137	0x3e32517c	0.17413896
138	0x3e3d81e7	0.18506585
139	0x3f10f858	0.5662894
140	0x3e2bc277	0.16773401
141	0x3d74fe9c	0.059813127
142	0xbd4bc4dd	-0.04974829
143	0x3d415f8c	0.04721026
144	0x3ece912e	0.40345138
145	0x3ed518be	0.4162044
146	0x3d957e63	0.07299497
147	0x3e50c892	0.20389012
148	0xbe6bcb7a	-0.23026839
149	0x3ea160c2	0.31519133
150	0xbdddb828	-0.10826141
151	0x3d29500b	0.0413361
152	0xbd3c4310	-0.045962393
153	0xbe139360	-0.14411688
154	0x3eb2abc9	0.34896687
155	0x3eba5f89	0.36401013
156	0xbd5a23ea	-0.053256907
157	0x3c852650	0.01625362
158	0x3c76f0b8	0.01507204
159	0x3d0d3a06	0.034479164
160	0x3ec3e08e	0.3825726
161	0x3c6ee78e	0.014581574
162	0xbbe1d205	-0.0068914914
163	0x3da1c42d	0.07898746
164	0x3d565066	0.052322768
165	0x3d77a93f	0.06046414
166	0xbd09ca20	-0.033640027
167	0x3d461f41	0.04836965
168	0x3e0441ce	0.12915727
169	0x3e25c5e6	0.16188774
170	0x3d5c4e81	0.053785805
171	0x3db5a96b	0.088702045
172	0x3e0c467d	0.13698764
173	0x3e0b9a19	0.13633002
174	0x3f39b1bf	0.72536844
175	0x3e143ff5	0.14477523
176	0xbd8672d9	-0.06564874
177	0x3f346a89	0.7047506
178	0xbea07662	-0.3134032
179	0x3ee1c033	0.4409195
180	0x3e8bbfa2	0.27294642
181	0x3e2c55c7	0.16829596
182	0x3dfbd052	0.12295593
183	0x3ea47ad8	0.32124972
184	0xbed0a42b	-0.4075025
185	0x3df4d5f5	0.119548716
186	0x3eeb04b2	0.4590202
187	0x3e3b6d65	0.1830345
188	0xbe8974f9	-0.26847056
189	0x3e745589	0.23860754
190	0x3e9c9e24	0.30589402
191	0xbe894fd7	-0.26818725
192	0x3f27afe3	0.65502757
193	0xbd9f4a60	-0.07777858
194	0x3d8218a5	0.06352357
195	0xbdb12ae8	-0.08650762
196	0x3ebb8d97	0.36631462
197	0x3dfe6f57	0.1242358
198	0x3f16c147	0.5888867
199	0x3f0de18b	0.55422276
200	0x3e6940d4	0.22778636
201	0x3e574f44	0.21026331
202	0x3f0e8016	0.55664194
203	0x3e6c36a8	0.23067725
204	0x3ea35561	0.31901076
205	0x3ecee8c1	0.40411952
206	0x3e402306	0.1876336
207	0x3eca235b	0.394801
208	0x3e5abb4d	0.21360512
209	0x3e145624	0.14485985
210	0xbdc27944	-0.09495786
211	0xbcf928d1	-0.03041497
212	0x3e384d31	0.17998196
213	0x3eda0b19	0.42586592
214	0x3e9311d3	0.28724536
215	0x3e2a96cf	0.16659091
216	0xbccb4c58	-0.024816677
217	0x3e4a1449	0.197343
218	0xbe37aacb	-0.17936246
219	0xbd6388c2	-0.055550344
220	0x3cdee290	0.027207643
221	0xbc0f7326	-0.008755481
222	0x3d675bb0	0.056483924
223	0xbc9de6f4	-0.019275166
224	0x3ec7304e	0.3890404
225	0x3db832a2	0.089940324
226	0xbd8aeced	-0.06783471
227	0x3e93bc8f	0.28854796
228	0xbe48fbce	-0.19627306
229	0x3e551e7c	0.2081241
230	0x3e7ae503	0.24501424
231	0xbe079e62	-0.13244012
232	0x3eb70975	0.35749403
233	0x3c680252	0.014160709
234	0x3e777b2d	0.24168082
235	0xbd2e0e89	-0.04249433
236	0x3dccc4bc	0.099984616
237	0xbdda5dd3	-0.10662427
238	0x3e897bc8	0.2685225
239	0x3e095d12	0.1341441
240	0xbe9d15d5	-0.3068072
241	0x3e114423	0.14186148
242	0x3e386f3b	0.18011181
243	0x3ec6492c	0.387277
244	0x3f02bf2c	0.51072955
245	0xbe28a161	-0.16467811
246	0xbd76c251	-0.06024391
247	0xbdaa3c4f	-0.08312284
248	0xbf19fbdc	-0.6014993
249	0x3cc108e0	0.023563802
250	0x3d0d9a6c	0.034571096
251	0x3f527575	0.82210475
252	0xbf064235	-0.52444774
253	0x3d8a50c1	0.06753684
254	0x3ed5bdb9	0.4174631
255	0xbdc66ede	-0.09689115

fc1.bias f4 [128]
0	0xbe113797	-0.14181362
1	0xbc9b7767	-0.018977834
2	0x3db262c5	0.08710245
3	0xbe3f04e0	-0.18654203
4	0x3dca52b3	0.09879055
5	0xbeeacb98	-0.45858455
6	0x3d1c9d7e	0.038236134
7	0xbd1b5b73	-0.03792901
8	0xbe2a25b2	-0.16615942
9	0xbbb94110	-0.005653508
10	0xbe17c1a9	-0.14819969
11	0x3d322aae	0.043497734
12	0xbeb98660	-0.36235332
13	0xbd433be0	-0.047664523
14	0x3e1a557c	0.15071672
15	0xbdb80958	-0.08986157
16	0xbe8210d4	-0.25403464
17	0xbca5f5a9	-0.020258741
18	0xbed88649	-0.4228995
19	0xbe921549	-0.28531864
20	0xbe4d9071	-0.20074631
21	0x3d6904a5	0.056889195
22	0xbea23bb9	-0.3168619
23	0xbc816401	-0.015794756
24	0xbe485f45	-0.19567592
25	0xbec97c0d	-0.39352456
26	0xbecd9114	-0.40149748
27	0x3e1a9609	0.15096296
28	0xbe82417e	-0.25440592
29	0xbdc51577	-0.09623235
30	0x3c324a40	0.01088196
31	0xbe917622	-0.2841044
32	0xbca3d947	-0.020001067
33	0xbdd5a74d	-0.10432301
34	0xbe6fc9d8	-0.23416841
35	0xbeebf670	-0.46086454
36	0xbe83d51d	-0.2574853
37	0xbe80f06f	-0.25183436
38	0xbe89a8fc	-0.26886737
39	0x3e4893ce	0.19587633
40	0xbea3e7ff	-0.32012936
41	0xbe8169b4	-0.25275958
42	0xbdd46265	-0.1037033
43	0xbe3f440e	-0.18678305
44	0xbd1144b4	-0.03546591
45	0xbe036629	-0.1283194
46	0xbc717051	-0.014736251
47	0xbd3d8d0d	-0.046277095
48	0xbe3d0e88	-0.18462574
49	0xbecf9560	-0.40543652
50	0x3e35a49d	0.17738576
51	0x3cf4a201	0.029862406
52	0xbe90edf2	-0.28306538
53	0xbee07878	-0.4384191
54	0x39a22cec	0.00030932517
55	0x3d7523bb	0.05984853
56	0xbe439e89	-0.19103445
57	0xbdc5d45a	-0.096596435
58	0x3e08e3f9	0.13368215
59	0xbd66a87d	-0.056313027
60	0xbe551264	-0.20807797
61	0xbcc76743	-0.024341231
62	0xbeaafdab	-0.33396658
63	0xbeceee06	-0.40415972
64	0xbc3d412a	-0.011551181
65	0xbe74d648	-0.23909867
66	0xbc165de8	-0.009177662
67	0xbee00fde	-0.43762106
68	0xbf005b13	-0.5013897
69	0xbd947f62	-0.07250859
70	0xbe760f6a	-0.24029317
71	0xbec94fa4	-0.39318573
72	0xbd17c703	-0.037055027
73	0x3ba92f85	0.0051631355
74	0xbe71c707	-0.23611079
75	0x3d92589d	0.07145808
76	0xbe901050	-0.28137445
77	0xbd1941b9	-0.037416194
78	0x3d6b4816	0.057441793
79	0x3e040259	0.1289152
80	0xbdd6c12c	-0.10486063
81	0x3e399cf1	0.18126275
82	0x3d7e9dd9	0.062162254
83	0xbed6494a	-0.4185279
84	0xbd735920	-0.059411168
85	0xbdafba5b	-0.08580466
86	0xbd0d0b5d	-0.034434665
87	0x3d701f79	0.058623765
88	0xbe90187c	-0.2814368
89	0xbeb91f99	-0.3615692
90	0x3e05a002	0.1304932
91	0xbd19f87a	-0.03759048
92	0x3d318ab2	0.04334516
93	0xbdff5284	-0.124669105
94	0xbf0aeb47	-0.54265255
95	0xbe4e4d4e	-0.20146677
96	0xbd5d4a5f	-0.054026004
97	0xbd3ca4e0	-0.046055675
98	0xbead2723	-0.3381892
99	0xbeb8da19	-0.36103895
100	0xbe21c6f9	-0.15798558
101	0xbd269d6f	-0.040677484
102	0xbe54cb13	-0.20780592
103	0xbddd2a0d	-0.10799036
104	0xbe84da77	-0.25947925
105	0xbe4a6103	-0.1976357
106	0x3dca4333	0.098760985
107	0x3c92bab1	0.017911287
108	0xbe877d5e	-0.26462835
109	0xbef6a440	-0.48172188
110	0xbeb9686d	-0.36212483
111	0x3b9cafea	0.004781713
112	0xbd80b42d	-0.06284366
113	0x3e29074b	0.16506688
114	0x3b4530a9	0.0030088818
115	0xbb8f8a14	-0.004380474
116	0xbeae82aa	-0.34084064
117	0xbee918fa	-0.45526868
118	0xbe9722ba	-0.29518682
119	0xbcb01421	-0.021493973
120	0xbef8c820	-0.48590183
121	0xbddd75bd	-0.108134724
122	0xbe4c6259	-0.19959392
123	0xbe241e43	-0.16027169
124	0xbea4c84d	-0.32184067
125	0xbe0cf82e	-0.13766548
126	0xbdaf344f	-0.08554899
127	0xbe337e2b	-0.17528598

fc2.weight f4 [5, 128]
0	0x3c0bce87	0.008533127
1	0xbdebe3fb	-0.11518093
2	0xbdd93b69	-0.10607035
3	0xbe44aa1d	-0.19205518
4	0x3db9fd82	0.09081556
5	0xbcb0912e	-0.021553602
6	0x3df8caa1	0.121480234
7	0xbe282256	-0.16419348
8	0xbd9b2c8c	-0.07576856
9	0xbddceb33	-0.10787048
10	0xbee761f8	-0.45191932
11	0xbe1019ae	-0.14072296
12	0x3d74a7ce	0.059730344
13	0xbf7466b0	-0.9546919
14	0x3be50882	0.0069895396
15	0xbe140ba8	-0.14457572
16	0xbd9676d1	-0.07346881
17	0xbf6c7db1	-0.9237929
18	0xbe5bfe3b	-0.214837
19	0xbc9434f4	-0.018091656
20	0xbe339810	-0.17538476
21	0x3cf432a2	0.0298093
22	0x3e555ef7	0.20837007
23	0x3d1ac1f5	0.037782628
24	0xbdd2b90b	-0.102892004
25	0xbd8810a6	-0.066438004
26	0xbd5b6fed	-0.053573538
27	0xbf777928	-0.96669245
28	0x3a8de74c	0.0010826378
29	0xbc6f1d87	-0.014594442
30	0x3d12e7a8	0.035865456
31	0xbd22de7d	-0.039762963
32	0xbd1341c7	-0.035951402
33	0x3d4e62c0	0.050387144
34	0xbe00520d	-0.125313
35	0x3b3ef6ff	0.002913892
36	0xbe82cbd1	-0.25546125
37	0xbd44909d	-0.047989476
38	0x3e47a8d1	0.19497992
39	0x3e1700d5	0.14746411
40	0xbca75552	-0.020426426
41	0x3e244f62	0.16045907
42	0xbc9e70bf	-0.01934087
43	0xbc87c620	-0.016573966
44	0xbfa4fd4e	-1.2889802
45	0xbf89be60	-1.0761223
46	0x3d557393	0.052112173
47	0xbd8c1971	-0.0684079
48	0xbd009e94	-0.031401232
49	0x3cdf2e14	0.027243651
50	0x3d09bd50	0.033627808
51	0xbf8c1afd	-1.0945736
52	0x3d5a380c	0.053276107
53	0xbd7972a8	-0.06090036
54	0xbeebfb95	-0.4609038
55	0xbe6b3a04	-0.2297135
56	0xbec83c27	-0.39108393
57	0xbe326901	-0.17422868
58	0xbf6342a0	-0.88773537
59	0xbf6cd4d9	-0.9251228
60	0xbe924759	-0.2857006
61	0x3c75e1f8	0.015007488
62	0xbdd3e875	-0.10347072
63	0x3e2ce2de	0.16883418
64	0xbc653f64	-0.013992164
65	0xbc61f865	-0.013792132
66	0x3d66904f	0.056289967
67	0xbe0e60e0	-0.13904142
68	0x3dfcf4b0	0.12351358
69	0xbf60341a	-0.875795
70	0xbece1741	-0.40252116
71	0x3c9a39ed	0.01882645
72	0xbf165f8c	-0.5873954
73	0xbd2f0943	-0.042733442
74	0x3b80e6da	0.0039337697
75	0xbf6bdd72	-0.92134774
76	0x3c1444f2	0.009049641
77	0x3cd71318	0.026254222
78	0xbe3a1b8f	-0.18174575
79	0xbeff4f4f	-0.49865195
80	0xbda53409	-0.080665655
81	0xbfa10304	-1.2579045
82	0x3e1922ac	0.14954633
83	0xbdb74711	-0.08949102
84	0xbeae638e	-0.3406033
85	0x3c89e036	0.016830545
86	0xbf14a5d8	-0.5806556
87	0xbf497c81	-0.787056
88	0xbcdfe0e6	-0.02732892
89	0x3d51aa9d	0.0511881
90	0xbf0e12c8	-0.5549741
91	0xbf9769f7	-1.1829213
92	0x3d5e7402	0.054309852
93	0xbf83a34f	-1.0284213
94	0xbeaceaef	-0.3377299
95	0xbe2baf48	-0.16766083
96	0xbdfa4ad2	-0.12221302
97	0xbe75ff71	-0.24023224
98	0xbd19e71d	-0.037573922
99	0xbd9c822f	-0.07642018
100	0x3cc4aff7	0.024009688
101	0x3cf83deb	0.030302962
102	0xbcaf604c	-0.021408223
103	0x3bdeba0e	0.006797082
104	0x3caa4bd8	0.020788118
105	0xbda414ca	-0.08011778
106	0xbf19c0bf	-0.6005973
107	0xbe9d046a	-0.3066743
108	0x3db52c31	0.088463195
109	0xbdcc2f45	-0.099699534
110	0xbd814c57	-0.06313389
111	0x3d13c357	0.036074962
112	0xbd6cfec2	-0.057860143
113	0xbf7cf9d2	-0.98818696
114	0xbf37fcf6	-0.7187036
115	0xbdf344c9	-0.11878354
116	0xbe890688	-0.26762795
117	0xbddad872	-0.10685815
118	0xbeaeaf42	-0.34118086
119	0xbd27ce0b	-0.040967982
120	0x3cd50793	0.026004588
121	0xbd9a28f0	-0.075273395
122	0xbc93a586	-0.018023264
123	0xbeda8ab3	-0.42683944
124	0xbcdc7ac7	-0.026914014
125	0xbed4d0a7	-0.4156544
126	0xbc820d33	-0.015875435
127	0xbd92a705	-0.07160763
128	0xbe9b9761	-0.3038893
129	0xbe0e8ad0	-0.1392014
130	0xbea17e0a	-0.31541473
131	0xbdbae043	-0.09124806
132	0x3dce9637	0.10087245
133	0xbeae5244	-0.3404714
134	0xbd151499	-0.036396597
135	0x3e11c9f4	0.14237195
136	0x3e4207b8	0.18948257
137	0xbeaf0b18	-0.3418815
138	0x3d05e307	0.032687213
139	0x3c83ad31	0.016073795
140	0xbddc2236	-0.10748713
141	0xbe1477af	-0.1449878
142	0xbe630fd7	-0.22174011
143	0xbebc09df	-0.3672628
144	0x3ca6cd5f	0.0203616
145	0xbdca96e2	-0.0989206
146	0xbf08dd81	-0.5346299
147	0x3cdbc1c9	0.026825802
148	0xbe844704	-0.2583543
149	0xbdcba523	-0.09943607
150	0xbed4e4ae	-0.4158072
151	0xbe487651	-0.19576384
152	0xbe890065	-0.26758114
153	0xbe8330a9	-0.25623062
154	0xbe5c4151	-0.21509291
155	0x3dbac2d5	0.091191925
156	0x3e2014bd	0.15632911
157	0x3e26d4d2	0.16292122
158	0x3c2bbf9f	0.010482698
159	0x3e4d73b2	0.20063666
160	0x3dc4fe9f	0.096188776
161	0x3e25d27b	0.16193573
162	0xbeaf68c3	-0.34259614
163	0xbe172ceb	-0.14763229
164	0xbef1d7b1	-0.47234872
165	0xbde594a8	-0.112099946
166	0xbeb119ad	-0.34589902
167	0x3cdb9d36	0.026808362
168	0xbed098c5	-0.40741554
169	0xbe82ed55	-0.25571695
170	0xbc257e91	-0.010100977
171	0x3e03f9c9	0.12888254
172	0xbcc71553	-0.02430216
173	0x3df00027	0.11718779
174	0xbeb2bf22	-0.34911448
175	0xbe524b51	-0.20536543
176	0xbed0e253	-0.40797672
177	0xbe50c4c5	-0.20387562
178	0xbd01dfca	-0.031707563
179	0x3e618fbd	0.22027488
180	0x3e003d51	0.1252339
181	0xbe04e7d9	-0.12979068
182	0x3d818341	0.06323863
183	0xbcc9e7f7	-0.024646742
184	0xbd9c7b8d	-0.07640753
185	0x3daf4197	0.08557432
186	0x3de425d7	0.1114003
187	0x3ddc9a4e	0.10771619
188	0x3dbad5fb	0.09122845
189	0x3cf76c55	0.030203024
190	0xbe93addc	-0.28843582
191	0xbf040d09	-0.5158239
192	0x3bc34a2e	0.0059597706
193	0xbd415c0e	-0.04720693
194	0x3dad4043	0.084595226
195	0xbe3d6feb	-0.18499725
196	0xbe4991e8	-0.19684565
197	0x3da94440	0.08264971
198	0xbefa6761	-0.48906997
199	0xbe877ea8	-0.2646382
200	0xbe74b8e3	-0.23898654
201	0x3cc7b72b	0.024379333
202	0xbda834e9	-0.08213217
203	0x3d88346e	0.06650625
204	0xbe66e403	-0.22547917
205	0x3d010166	0.031495474
206	0xbd7aaede	-0.061201923
207	0x3e11ab41	0.14225484
208	0xbd679138	-0.056534976
209	0x3cced2bf	0.025246976
210	0xb895c49d	-7.141496e-05
211	0xbd8bced7	-0.06826561
212	0x3ca6ed0f	0.02037671
213	0xbea0dc32	-0.31417996
214	0x3d32aa45	0.043619413
215	0x3dc6b367	0.09702187
216	0x3d0d5906	0.034508727
217	0x3def6a39	0.11690182
218	0x3d8c763e	0.068584904
219	0x3e06944d	0.1314251
220	0x3e19a82a	0.15005556
221	0xbe8a97ce	-0.27068943
222	0xbe9958fe	-0.29950708
223	0xbe8a8fe6	-0.2706291
224	0xbe4b334a	-0.19843784
225	0xbe01b522	-0.12666753
226	0xbed6348d	-0.41836968
227	0x3da907b9	0.08253426
228	0xbdccfa7d	-0.10008714
229	0x3c18b6f2	0.009320961
230	0x3d354121	0.044251565
231	0x3d1f9597	0.03896102
232	0xbd4bbffd	-0.04974364
233	0xbee2fd78	-0.44334006
234	0x3dcad99d	0.09904788
235	0x3df6bdf0	0.120479465
236	0xbd343e10	-0.0440045
237	0xbe891b10	-0.2677846
238	0xbd9e7e8d	-0.077389814
239	0x3d218505	0.039433498
240	0xbc584765	-0.0132006155
241	0x3cdc0da4	0.026861973
242	0xbdf9e56d	-0.122019626
243	0xbe941c9e	-0.28928083
244	0xbe1afc0d	-0.15135212
245	0xbeae6bdf	-0.34066674
246	0xbe95c842	-0.29254347
247	0xbe2d23fa	-0.16908255
248	0xbf0abe3f	-0.5419654
249	0xbd38acae	-0.045086555
250	0xbe8d9a4d	-0.27656785
251	0x3db543ca	0.0885082
252	0xbe49c073	-0.1970232
253	0x3e0e1c7f	0.13878058
254	0x3dcff056	0.10153262
255	0xbeaeca43	-0.34138688

fc2.bias f4 [5]
0	0xbeca76ce	-0.39543766
1	0x3ddbf402	0.107399
2	0xbf095696	-0.53647745
3	0x3d203174	0.039109662
4	0x3d9715fe	0.073772416
